…
pg","userId":"02169917425067026181"}}},"source":["model = pretrainedmodels.__dict__['inceptionv4'](num_classes=1000, pretrained='imagenet')\n","model.eval()"],"execution_count":122,"outputs":[{"output_type":"stream","text":["Downloading: \"http://data.lip6.fr/cadene/pretrainedmodels/inceptionv4-8e4777a0.pth\" to /root/.cache/torch/checkpoints/inceptionv4-8e4777a0.pth\n","100%|██████████| 171082495/171082495 [08:01<00:00, 355184.19it/s]\n"],"name":"stderr"},{"output_type":"execute_result","data":{"text/plain":["InceptionV4(\n","  (features): Sequential(\n","    (0): BasicConv2d(\n","      (conv): Conv2d(3, 32, kernel_size=(3, 3), stride=(2, 2), bias=False)\n","      (bn): BatchNorm2d(32, eps=0.001, momentum=0.1, affine=True, track_running_stats=True)\n","      (relu): ReLU(inplace)\n","    )\n","    (1): BasicConv2d(\n","      (conv): Conv2d(32, 32, kernel_size=(3, 3), stride=(1, 1), bias=False)\n","      (bn): BatchNorm2d(32, eps=0.001, momentum=0.1, affine=True, track_running_stats=True)\n","      (relu): ReLU(inplace)\n","    )\n","    (2): BasicConv2d(\n","      (conv): Conv2d(32, 64, kernel_size=(3, 3), stride=(1, 1), padding=(1, 1), bias=False)\n","      (bn): BatchNorm2d(64, eps=0.001, momentum=0.1, affine=True, track_running_stats=True)\n","      (relu): ReLU(inplace)\n","    )\n","    (3): Mixed_3a(\n","      (maxpool): MaxPool2d(kernel_size=3, stride=2, padding=0, dilation=1, ceil_mode=False)\n","      (conv): BasicConv2d(\n","        (conv): Conv2d(64, 96, kernel_size=(3, 3), stride=(2, 2), bias=False)\n","        (bn): BatchNorm2d(96, eps=0.001, momentum=0.1, affine=True, track_running_stats=True)\n","        (relu): ReLU(inplace)\n","      )\n","    )\n","    (4): Mixed_4a(\n","      (branch0): Sequential(\n","        (0): BasicConv2d(\n","          (conv): Conv2d(160, 64, kernel_size=(1, 1), stride=(1, 1), bias=False)\n","          (bn): BatchNorm2d(64, eps=0.001, momentum=0.1, affine=True, track_running_stats=True)\n","          (relu): ReLU(inplace)\n","        )\n","        (1): BasicConv2d(\n","          (conv): Conv2d(64, 96, kernel_size=(3, 3), stride=(1, 1), bias=False)\n","          (bn): BatchNorm2d(96, eps=0.001, momentum=0.1, affine=True, track_running_stats=True)\n","          (relu): ReLU(inplace)\n","        )\n","      )\n","      (branch1): Sequential(\n","        (0): BasicConv2d(\n","          (conv): Conv2d(160, 64, kernel_size=(1, 1), stride=(1, 1), bias=False)\n","          (bn): BatchNorm2d(64, eps=0.001, momentum=0.1, affine=True, track_running_stats=True)\n","          (relu): ReLU(inplace)\n","        )\n","        (1): BasicConv2d(\n","          (conv): Conv2d(64, 64, kernel_size=(1, 7), stride=(1, 1), padding=(0, 3), bias=False)\n","          (bn): BatchNorm2d(64, eps=0.001, momentum=0.1, affine=True, track_running_stats=True)\n","          (relu): ReLU(inplace)\n","        )\n","        (2): BasicConv2d(\n","          (conv): Conv2d(64, 64, kernel_size=(7, 1), stride=(1, 1), padding=(3, 0), bias=False)\n","          (bn): BatchNorm2d(64, eps=0.001, momentum=0.1, affine=True, track_running_stats=True)\n","          (relu): ReLU(inplace)\n","        )\n","        (3): BasicConv2d(\n","          (conv): Conv2d(64, 96, kernel_size=(3, 3), stride=(1, 1), bias=False)\n","          (bn): BatchNorm2d(96, eps=0.001, momentum=0.1, affine=True, track_running_stats=True)\n","          (relu): ReLU(inplace)\n","        )\n","      )\n","    )\n","    (5): Mixed_5a(\n","      (conv): BasicConv2d(\n","        (conv): Conv2d(192, 192, kernel_size=(3, 3), stride=(2, 2), bias=False)\n","        (bn): BatchNorm2d(192, eps=0.001, momentum=0.1, affine=True, track_running_stats=True)\n","        (relu): ReLU(inplace)\n","      )\n","      (maxpool): MaxPool2d(kernel_size=3, stride=2, padding=0, dilation=1, ceil_mode=False)\n","    )\n","    (6): Inception_A(\n","      (branch0): BasicConv2d(\n","        (conv): Conv2d(384, 96, kernel_size=(1, 1), stride=(1, 1), bias=False)\n","        (bn): BatchNorm2d(96, eps=0.001, momentum=0.1, affine=True, track_running_stats=True)\n","        (relu): ReLU(inplace)\n","      )\n","      (branch1): Sequential(\n","        (0): BasicConv2d(\n","          (conv): Conv2d(384, 64, kernel_size=(1, 1), stride=(1, 1), bias=False)\n","          (bn): BatchNorm2d(64, eps=0.001, momentum=0.1, affine=True, track_running_stats=True)\n","          (relu): ReLU(inplace)\n","        )\n","        (1): BasicConv2d(\n","          (conv): Conv2d(64, 96, kernel_size=(3, 3), stride=(1, 1), padding=(1, 1), bias=False)\n","          (bn): BatchNorm2d(96, eps=0.001, momentum=0.1, affine=True, track_running_stats=True)\n","          (relu): ReLU(inplace)\n","        )\n","      )\n","      (branch2): Sequential(\n","        (0): BasicConv2d(\n","          (conv): Conv2d(384, 64, kernel_size=(1, 1), stride=(1, 1), bias=False)\n","          (bn): BatchNorm2d(64, eps=0.001, momentum=0.1, affine=True, track_running_stats=True)\n","          (relu): ReLU(inplace)\n","        )\n","        (1): BasicConv2d(\n","          (conv): Conv2d(64, 96, kernel_size=(3, 3), stride=(1, 1), padding=(1, 1), bias=False)\n","          (bn): BatchNorm2d(96, eps=0.001, momentum=0.1, affine=True, track_running_stats=True)\n","          (relu): ReLU(inplace)\n","        )\n","        (2): BasicConv2d(\n","          (conv): Conv2d(96, 96, kernel_size=(3, 3), stride=(1, 1), padding=(1, 1), bias=False)\n","          (bn): BatchNorm2d(96, eps=0.001, momentum=0.1, affine=True, track_running_stats=True)\n","          (relu): ReLU(inplace)\n","        )\n","      )\n","      (branch3): Sequential(\n","        (0): AvgPool2d(kernel_size=3, stride=1, padding=1)\n","        (1): BasicConv2d(\n","          (conv): Conv2d(384, 96, kernel_size=(1, 1), stride=(1, 1), bias=False)\n","          (bn): BatchNorm2d(96, eps=0.001, momentum=0.1, affine=True, track_running_stats=True)\n","          (relu): ReLU(inplace)\n","        )\n","      )\n","    )\n","    (7): Inception_A(\n","      (branch0): BasicConv2d(\n","        (conv): Conv2d(384, 96, kernel_size=(1, 1), stride=(1, 1), bias=False)\n","        (bn): BatchNorm2d(96, eps=0.001, momentum=0.1, affine=True, track_running_stats=True)\n","        (relu): ReLU(inplace)\n","      )\n","      (branch1): Sequential(\n","        (0): BasicConv2d(\n","          (conv): Conv2d(384, 64, kernel_size=(1, 1), stride=(1, 1), bias=False)\n","          (bn): BatchNorm2d(64, eps=0.001, momentum=0.1, affine=True, track_running_stats=True)\n","          (relu): ReLU(inplace)\n","        )\n","        (1): BasicConv2d(\n","          (conv): Conv2d(64, 96, kernel_size=(3, 3), stride=(1, 1), padding=(1, 1), bias=False)\n","          (bn): BatchNorm2d(96, eps=0.001, momentum=0.1, affine=True, track_running_stats=True)\n","          (relu): ReLU(inplace)\n","        )\n","      )\n","      (branch2): Sequential(\n","        (0): BasicConv2d(\n","          (conv): Conv2d(384, 64, kernel_size=(1, 1), stride=(1, 1), bias=False)\n","          (bn): BatchNorm2d(64, eps=0.001, momentum=0.1, affine=True, track_running_stats=True)\n","          (relu): ReLU(inplace)\n","        )\n","        (1): BasicConv2d(\n","          (conv): Conv2d(64, 96, kernel_size=(3, 3), stride=(1, 1), padding=(1, 1), bias=False)\n","          (bn): BatchNorm2d(96, eps=0.001, momentum=0.1, affine=True, track_running_stats=True)\n","          (relu): ReLU(inplace)\n","        )\n","        (2): BasicConv2d(\n","          (conv): Conv2d(96, 96, kernel_size=(3, 3), stride=(1, 1), padding=(1, 1), bias=False)\n","          (bn): BatchNorm2d(96, eps=0.001, momentum=0.1, affine=True, track_running_stats=True)\n","          (relu): ReLU(inplace)\n","        )\n","      )\n","      (branch3): Sequential(\n","        (0): AvgPool2d(kernel_size=3, stride=1, padding=1)\n","        (1): BasicConv2d(\n","          (conv): Conv2d(384, 96, kernel_size=(1, 1), stride=(1, 1), bias=False)\n","          (bn): BatchNorm2d(96, eps=0.001, momentum=0.1, affine=True, track_running_stats=True)\n","          (relu): ReLU(inplace)\n","        )\n","      )\n","    )\n","    (8): Inception_A(\n","      (branch0): BasicConv2d(\n","        (conv): Conv2d(384, 96, kernel_size=(1, 1), stride=(1, 1), bias=False)\n","        (bn): BatchNorm2d(96, eps=0.001, momentum=0.1, affine=True, track_running_stats=True)\n","        (relu): ReLU(inplace)\n","      )\n","      (branch1): Sequential(\n","        (0): BasicConv2d(\n","          (conv): Conv2d(384, 64, kernel_size=(1, 1), stride=(1, 1), bias=False)\n","          (bn): BatchNorm2d(64, eps=0.001, momentum=0.1, affine=True, track_running_stats=True)\n","          (relu): ReLU(inplace)\n","        )\n","        (1): BasicConv2d(\n","          (conv): Conv2d(64, 96, kernel_size=(3, 3), stride=(1, 1), padding=(1, 1), bias=False)\n","          (bn): BatchNorm2d(96, eps=0.001, momentum=0.1, affine=True, track_running_stats=True)\n","          (relu): ReLU(inplace)\n","        )\n","      )\n","      (branch2): Sequential(\n","        (0): BasicConv2d(\n","          (conv): Conv2d(384, 64, kernel_size=(1, 1), stride=(1, 1), bias=False)\n","          (bn): BatchNorm2d(64, eps=0.001, momentum=0.1, affine=True, track_running_stats=True)\n","          (relu): ReLU(inplace)\n","        )\n","        (1): BasicConv2d(\n","          (conv): Conv2d(64, 96, kernel_size=(3, 3), stride=(1, 1), padding=(1, 1), bias=False)\n","          (bn): BatchNorm2d(96, eps=0.001, momentum=0.1, affine=True, track_running_stats=True)\n","          (relu): ReLU(inplace)\n","        )\n","        (2): BasicConv2d(\n","          (conv): Conv2d(96, 96, kernel_size=(3, 3), stride=(1, 1), padding=(1, 1), bias=False)\n","          (bn): BatchNorm2d(96, eps=0.001, momentum=0.1, affine=True, track_running_stats=True)\n","          (relu): ReLU(inplace)\n","        )\n","      )\n","      (branch3): Sequential(\n","        (0): AvgPool2d(kernel_size=3, stride=1, padding=1)\n","        (1): BasicConv2d(\n","          (conv): Conv2d(384, 96, kernel_size=(1, 1), stride=(1, 1), bias=False)\n","          (bn): BatchNorm2d(96, eps=0.001, momentum=0.1, affine=True, track_running_stats=True)\n","          (relu): ReLU(inplace)\n","        )\n","      )\n","    )\n","    (9): Inception_A(\n","      (branch0): BasicConv2d(\n","        (conv): Conv2d(384, 96, kernel_size=(1, 1), stride=(1, 1), bias=False)\n","        (bn): BatchNorm2d(96, eps=0.001, momentum=0.1, affine=True, track_running_stats=True)\n","        (relu): ReLU(inplace)\n","      )\n","      (branch1): Sequential(\n","        (0): BasicConv2d(\n","          (conv): Conv2d(384, 64, kernel_size=(1, 1), stride=(1, 1), bias=False)\n","          (bn): BatchNorm2d(64, eps=0.001, momentum=0.1, affine=True, track_running_stats=True)\n","          (relu): ReLU(inplace)\n","        )\n","        (1): BasicConv2d(\n","          (conv): Conv2d(64, 96, kernel_size=(3, 3), stride=(1, 1), padding=(1, 1), bias=False)\n","          (bn): BatchNorm2d(96, eps=0.001, momentum=0.1, affine=True, track_running_stats=True)\n","          (relu): ReLU(inplace)\n","        )\n","      )\n","      (branch2): Sequential(\n","        (0): BasicConv2d(\n","          (conv): Conv2d(384, 64, kernel_size=(1, 1), stride=(1, 1), bias=False)\n","          (bn): BatchNorm2d(64, eps=0.001, momentum=0.1, affine=True, track_running_stats=True)\n","          (relu): ReLU(inplace)\n","        )\n","        (1): BasicConv2d(\n","          (conv): Conv2d(64, 96, kernel_size=(3, 3), stride=(1, 1), padding=(1, 1), bias=False)\n","          (bn): BatchNorm2d(96, eps=0.001, momentum=0.1, affine=True, track_running_stats=True)\n","          (relu): ReLU(inplace)\n","        )\n","        (2): BasicConv2d(\n","          (conv): Conv2d(96, 96, kernel_size=(3, 3), stride=(1, 1), padding=(1, 1), bias=False)\n","          (bn): BatchNorm2d(96, eps=0.001, momentum=0.1, affine=True, track_running_stats=True)\n","          (relu): ReLU(inplace)\n","        )\n","      )\n","      (branch3): Sequential(\n","        (0): AvgPool2d(kernel_size=3, stride=1, padding=1)\n","        (1): BasicConv2d(\n","          (conv): Conv2d(384, 96, kernel_size=(1, 1), stride=(1, 1), bias=False)\n","          (bn): BatchNorm2d(96, eps=0.001, momentum=0.1, affine=True, track_running_stats=True)\n","          (relu): ReLU(inplace)\n","        )\n","      )\n","    )\n","    (10): Reduction_A(\n","      (branch0): BasicConv2d(\n","        (conv): Conv2d(384, 384, kernel_size=(3, 3), stride=(2, 2), bias=False)\n","        (bn): BatchNorm2d(384, eps=0.001, momentum=0.1, affine=True, track_running_stats=True)\n","        (relu): ReLU(inplace)\n","      )\n","      (branch1): Sequential(\n","        (0): BasicConv2d(\n","          (conv): Conv2d(384, 192, kernel_size=(1, 1), stride=(1, 1), bias=False)\n","          (bn): BatchNorm2d(192, eps=0.001, momentum=0.1, affine=True, track_running_stats=True)\n","          (relu): ReLU(inplace)\n","        )\n","        (1): BasicConv2d(\n","          (conv): Conv2d(192, 224, kernel_size=(3, 3), stride=(1, 1), padding=(1, 1), bias=False)\n","          (bn): BatchNorm2d(224, eps=0.001, momentum=0.1, affine=True, track_running_stats=True)\n","          (relu): ReLU(inplace)\n","        )\n","        (2): BasicConv2d(\n","          (conv): Conv2d(224, 256, kernel_size=(3, 3), stride=(2, 2), bias=False)\n","          (bn): BatchNorm2d(256, eps=0.001, momentum=0.1, affine=True, track_running_stats=True)\n","          (relu): ReLU(inplace)\n","        )\n","      )\n","      (branch2): MaxPool2d(kernel_size=3, stride=2, padding=0, dilation=1, ceil_mode=False)\n","    )\n","    (11): Inception_B(\n","      (branch0): BasicConv2d(\n","        (conv): Conv2d(1024, 384, kernel_size=(1, 1), stride=(1, 1), bias=False)\n","        (bn): BatchNorm2d(384, eps=0.001, momentum=0.1, affine=True, track_running_stats=True)\n","        (relu): ReLU(inplace)\n","      )\n","      (branch1): Sequential(\n","        (0): BasicConv2d(\n","          (conv): Conv2d(1024, 192, kernel_size=(1, 1), stride=(1, 1), bias=False)\n","          (bn): BatchNorm2d(192, eps=0.001, momentum=0.1, affine=True, track_running_stats=True)\n","          (relu): ReLU(inplace)\n","        )\n","        (1): BasicConv2d(\n","          (conv): Conv2d(192, 224, kernel_size=(1, 7), stride=(1, 1), padding=(0, 3), bias=False)\n","          (bn): BatchNorm2d(224, eps=0.001, momentum=0.1, affine=True, track_running_stats=True)\n","          (relu): ReLU(inplace)\n","        )\n","        (2): BasicConv2d(\n","          (conv): Conv2d(224, 256, kernel_size=(7, 1), stride=(1, 1), padding=(3, 0), bias=False)\n","          (bn): BatchNorm2d(256, eps=0.001, momentum=0.1, affine=True, track_running_stats=True)\n","          (relu): ReLU(inplace)\n","        )\n","      )\n","      (branch2): Sequential(\n","        (0): BasicConv2d(\n","          (conv): Conv2d(1024, 192, kernel_size=(1, 1), stride=(1, 1), bias=False)\n","          (bn): BatchNorm2d(192, eps=0.001, momentum=0.1, affine=True, track_running_stats=True)\n","          (relu): ReLU(inplace)\n","        )\n","        (1): BasicConv2d(\n","          (conv): Conv2d(192, 192, kernel_size=(7, 1), stride=(1, 1), padding=(3, 0), bias=False)\n","          (bn): BatchNorm2d(192, eps=0.001, momentum=0.1, affine=True, track_running_stats=True)\n","          (relu): ReLU(inplace)\n","        )\n","        (2): BasicConv2d(\n","          (conv): Conv2d(192, 224, kernel_size=(1, 7), stride=(1, 1), padding=(0, 3), bias=False)\n","          (bn): BatchNorm2d(224, eps=0.001, momentum=0.1, affine=True, track_running_stats=True)\n","          (relu): ReLU(inplace)\n","        )\n","        (3): BasicConv2d(\n","          (conv): Conv2d(224, 224, kernel_size=(7, 1), stride=(1, 1), padding=(3, 0), bias=False)\n","          (bn): BatchNorm2d(224, eps=0.001, momentum=0.1, affine=True, track_running_stats=True)\n","          (relu): ReLU(inplace)\n","        )\n","        (4): BasicConv2d(\n","          (conv): Conv2d(224, 256, kernel_size=(1, 7), stride=(1, 1), padding=(0, 3), bias=False)\n","          (bn): BatchNorm2d(256, eps=0.001, momentum=0.1, affine=True, track_running_stats=True)\n","          (relu): ReLU(inplace)\n","        )\n","      )\n","      (branch3): Sequential(\n","        (0): AvgPool2d(kernel_size=3, stride=1, padding=1)\n","        (1): BasicConv2d(\n","          (conv): Conv2d(1024, 128, kernel_size=(1, 1), stride=(1, 1), bias=False)\n","          (bn): BatchNorm2d(128, eps=0.001, momentum=0.1, affine=True, track_running_stats=True)\n","          (relu): ReLU(inplace)\n","        )\n","      )\n","    )\n","    (12): Inception_B(\n","      (branch0): BasicConv2d(\n","        (conv): Conv2d(1024, 384, kernel_size=(1, 1), stride=(1, 1), bias=False)\n","        (bn): BatchNorm2d(384, eps=0.001, momentum=0.1, affine=True, track_running_stats=True)\n","        (relu): ReLU(inplace)\n","      )\n","      (branch1): Sequential(\n","        (0): BasicConv2d(\n","          (conv): Conv2d(1024, 192, kernel_size=(1, 1), stride=(1, 1), bias=False)\n","          (bn): BatchNorm2d(192, eps=0.001, momentum=0.1, affine=True, track_running_stats=True)\n","          (relu): ReLU(inplace)\n","        )\n","        (1): BasicConv2d(\n","          (conv): Conv2d(192, 224, kernel_size=(1, 7), stride=(1, 1), padding=(0, 3), bias=False)\n","          (bn): BatchNorm2d(224, eps=0.001, momentum=0.1, affine=True, track_running_stats=True)\n","          (relu): ReLU(inplace)\n","        )\n","        (2): BasicConv2d(\n","          (conv): Conv2d(224, 256, kernel_size=(7, 1), stride=(1, 1), padding=(3, 0), bias=False)\n","          (bn): BatchNorm2d(256, eps=0.001, momentum=0.1, affine=True, track_running_stats=True)\n","          (relu): ReLU(inplace)\n","        )\n","      )\n","      (branch2): Sequential(\n","        (0): BasicConv2d(\n","          (conv): Conv2d(1024, 192, kernel_size=(1, 1), stride=(1, 1), bias=False)\n","          (bn): BatchNorm2d(192, eps=0.001, momentum=0.1, affine=True, track_running_stats=True)\n","          (relu): ReLU(inplace)\n","        )\n","        (1): BasicConv2d(\n","          (conv): Conv2d(192, 192, kernel_size=(7, 1), stride=(1, 1), padding=(3, 0), bias=False)\n","          (bn): BatchNorm2d(192, eps=0.001, momentum=0.1, affine=True, track_running_stats=True)\n","          (relu): ReLU(inplace)\n","        )\n","        (2): BasicConv2d(\n","          (conv): Conv2d(192, 224, kernel_size=(1, 7), stride=(1, 1), padding=(0, 3), bias=False)\n","          (bn): BatchNorm2d(224, eps=0.001, momentum=0.1, affine=True, track_running_stats=True)\n","          (relu): ReLU(inplace)\n","        )\n","        (3): BasicConv2d(\n","          (conv): Conv2d(224, 224, kernel_size=(7, 1), stride=(1, 1), padding=(3, 0), bias=False)\n","          (bn): BatchNorm2d(224, eps=0.001, momentum=0.1, affine=True, track_running_stats=True)\n","          (relu): ReLU(inplace)\n","        )\n","        (4): BasicConv2d(\n","          (conv): Conv2d(224, 256, kernel_size=(1, 7), stride=(1, 1), padding=(0, 3), bias=False)\n","          (bn): BatchNorm2d(256, eps=0.001, momentum=0.1, affine=True, track_running_stats=True)\n","          (relu): ReLU(inplace)\n","        )\n","      )\n","      (branch3): Sequential(\n","        (0): AvgPool2d(kernel_size=3, stride=1, padding=1)\n","        (1): BasicConv2d(\n","          (conv): Conv2d(1024, 128, kernel_size=(1, 1), stride=(1, 1), bias=False)\n","          (bn): BatchNorm2d(128, eps=0.001, momentum=0.1, affine=True, track_running_stats=True)\n","          (relu): ReLU(inplace)\n","        )\n","      )\n","    )\n","    (13): Inception_B(\n","      (branch0): BasicConv2d(\n","        (conv): Conv2d(1024, 384, kernel_size=(1, 1), stride=(1, 1), bias=False)\n","        (bn): BatchNorm2d(384, eps=0.001, momentum=0.1, affine=True, track_running_stats=True)\n","        (relu): ReLU(inplace)\n","      )\n","      (branch1): Sequential(\n","        (0): BasicConv2d(\n","          (conv): Conv2d(1024, 192, kernel_size=(1, 1), stride=(1, 1), bias=False)\n","          (bn): BatchNorm2d(192, eps=0.001, momentum=0.1, affine=True, track_running_stats=True)\n","          (relu): ReLU(inplace)\n","        )\n","        (1): BasicConv2d(\n","          (conv): Conv2d(192, 224, kernel_size=(1, 7), stride=(1, 1), padding=(0, 3), bias=False)\n","          (bn): BatchNorm2d(224, eps=0.001, momentum=0.1, affine=True, track_running_stats=True)\n","          (relu): ReLU(inplace)\n","        )\n","        (2): BasicConv2d(\n","          (conv): Conv2d(224, 256, kernel_size=(7, 1), stride=(1, 1), padding=(3, 0), bias=False)\n","          (bn): BatchNorm2d(256, eps=0.001, momentum=0.1, affine=True, track_running_stats=True)\n","          (relu): ReLU(inplace)\n","        )\n","      )\n","      (branch2): Sequential(\n","        (0): BasicConv2d(\n","          (conv): Conv2d(1024, 192, kernel_size=(1, 1), stride=(1, 1), bias=False)\n","          (bn): BatchNorm2d(192, eps=0.001, momentum=0.1, affine=True, track_running_stats=True)\n","          (relu): ReLU(inplace)\n","        )\n","        (1): BasicConv2d(\n","          (conv): Conv2d(192, 192, kernel_size=(7, 1), stride=(1, 1), padding=(3, 0), bias=False)\n","          (bn): BatchNorm2d(192, eps=0.001, momentum=0.1, affine=True, track_running_stats=True)\n","          (relu): ReLU(inplace)\n","        )\n","        (2): BasicConv2d(\n","          (conv): Conv2d(192, 224, kernel_size=(1, 7), stride=(1, 1), padding=(0, 3), bias=False)\n","          (bn): BatchNorm2d(224, eps=0.001, momentum=0.1, affine=True, track_running_stats=True)\n","          (relu): ReLU(inplace)\n","        )\n","        (3): BasicConv2d(\n","          (conv): Conv2d(224, 224, kernel_size=(7, 1), stride=(1, 1), padding=(3, 0), bias=False)\n","          (bn): BatchNorm2d(224, eps=0.001, momentum=0.1, affine=True, track_running_stats=True)\n","          (relu): ReLU(inplace)\n","        )\n","        (4): BasicConv2d(\n","          (conv): Conv2d(224, 256, kernel_size=(1, 7), stride=(1, 1), padding=(0, 3), bias=False)\n","          (bn): BatchNorm2d(256, eps=0.001, momentum=0.1, affine=True, track_running_stats=True)\n","          (relu): ReLU(inplace)\n","        )\n","      )\n","      (branch3): Sequential(\n","        (0): AvgPool2d(kernel_size=3, stride=1, padding=1)\n","        (1): BasicConv2d(\n","          (conv): Conv2d(1024, 128, kernel_size=(1, 1), stride=(1, 1), bias=False)\n","          (bn): BatchNorm2d(128, eps=0.001, momentum=0.1, affine=True, track_running_stats=True)\n","          (relu): ReLU(inplace)\n","        )\n","      )\n","    )\n","    (14): Inception_B(\n","      (branch0): BasicConv2d(\n","        (conv): Conv2d(1024, 384, kernel_size=(1, 1), stride=(1, 1), bias=False)\n","        (bn): BatchNorm2d(384, eps=0.001, momentum=0.1, affine=True, track_running_stats=True)\n","        (relu): ReLU(inplace)\n","      )\n","      (branch1): Sequential(\n","        (0): BasicConv2d(\n","          (conv): Conv2d(1024, 192, kernel_size=(1, 1), stride=(1, 1), bias=False)\n","          (bn): BatchNorm2d(192, eps=0.001, momentum=0.1, affine=True, track_running_stats=True)\n","          (relu): ReLU(inplace)\n","        )\n","        (1): BasicConv2d(\n","          (conv): Conv2d(192, 224, kernel_size=(1, 7), stride=(1, 1), padding=(0, 3), bias=False)\n","          (bn): BatchNorm2d(224, eps=0.001, momentum=0.1, affine=True, track_running_stats=True)\n","          (relu): ReLU(inplace)\n","        )\n","        (2): BasicConv2d(\n","          (conv): Conv2d(224, 256, kernel_size=(7, 1), stride=(1, 1), padding=(3, 0), bias=False)\n","          (bn): BatchNorm2d(256, eps=0.001, momentum=0.1, affine=True, track_running_stats=True)\n","          (relu): ReLU(inplace)\n","        )\n","      )\n","      (branch2): Sequential(\n","        (0): BasicConv2d(\n","          (conv): Conv2d(1024, 192, kernel_size=(1, 1), stride=(1, 1), bias=False)\n","          (bn): BatchNorm2d(192, eps=0.001, momentum=0.1, affine=True, track_running_stats=True)\n","          (relu): ReLU(inplace)\n","        )\n","        (1): BasicConv2d(\n","          (conv): Conv2d(192, 192, kernel_size=(7, 1), stride=(1, 1), padding=(3, 0), bias=False)\n","          (bn): BatchNorm2d(192, eps=0.001, momentum=0.1, affine=True, track_running_stats=True)\n","          (relu): ReLU(inplace)\n","        )\n","        (2): BasicConv2d(\n","          (conv): Conv2d(192, 224, kernel_size=(1, 7), stride=(1, 1), padding=(0, 3), bias=False)\n","          (bn): BatchNorm2d(224, eps=0.001, momentum=0.1, affine=True, track_running_stats=True)\n","          (relu): ReLU(inplace)\n","        )\n","        (3): BasicConv2d(\n","          (conv): Conv2d(224, 224, kernel_size=(7, 1), stride=(1, 1), padding=(3, 0), bias=False)\n","          (bn): BatchNorm2d(224, eps=0.001, momentum=0.1, affine=True, track_running_stats=True)\n","          (relu): ReLU(inplace)\n","        )\n","        (4): BasicConv2d(\n","          (conv): Conv2d(224, 256, kernel_size=(1, 7), stride=(1, 1), padding=(0, 3), bias=False)\n","          (bn): BatchNorm2d(256, eps=0.001, momentum=0.1, affine=True, track_running_stats=True)\n","          (relu): ReLU(inplace)\n","        )\n","      )\n","      (branch3): Sequential(\n","        (0): AvgPool2d(kernel_size=3, stride=1, padding=1)\n","        (1): BasicConv2d(\n","          (conv): Conv2d(1024, 128, kernel_size=(1, 1), stride=(1, 1), bias=False)\n","          (bn): BatchNorm2d(128, eps=0.001, momentum=0.1, affine=True, track_running_stats=True)\n","          (relu): ReLU(inplace)\n","        )\n","      )\n","    )\n","    (15): Inception_B(\n","      (branch0): BasicConv2d(\n","        (conv): Conv2d(1024, 384, kernel_size=(1, 1), stride=(1, 1), bias=False)\n","        (bn): BatchNorm2d(384, eps=0.001, momentum=0.1, affine=True, track_running_stats=True)\n","        (relu): ReLU(inplace)\n","      )\n","      (branch1): Sequential(\n","        (0): BasicConv2d(\n","          (conv): Conv2d(1024, 192, kernel_size=(1, 1), stride=(1, 1), bias=False)\n","          (bn): BatchNorm2d(192, eps=0.001, momentum=0.1, affine=True, track_running_stats=True)\n","          (relu): ReLU(inplace)\n","        )\n","        (1): BasicConv2d(\n","          (conv): Conv2d(192, 224, kernel_size=(1, 7), stride=(1, 1), padding=(0, 3), bias=False)\n","          (bn): BatchNorm2d(224, eps=0.001, momentum=0.1, affine=True, track_running_stats=True)\n","          (relu): ReLU(inplace)\n","        )\n","        (2): BasicConv2d(\n","          (conv): Conv2d(224, 256, kernel_size=(7, 1), stride=(1, 1), padding=(3, 0), bias=False)\n","          (bn): BatchNorm2d(256, eps=0.001, momentum=0.1, affine=True, track_running_stats=True)\n","          (relu): ReLU(inplace)\n","        )\n","      )\n","      (branch2): Sequential(\n","        (0): BasicConv2d(\n","          (conv): Conv2d(1024, 192, kernel_size=(1, 1), stride=(1, 1), bias=False)\n","          (bn): BatchNorm2d(192, eps=0.001, momentum=0.1, affine=True, track_running_stats=True)\n","          (relu): ReLU(inplace)\n","        )\n","        (1): BasicConv2d(\n","          (conv): Conv2d(192, 192, kernel_size=(7, 1), stride=(1, 1), padding=(3, 0), bias=False)\n","          (bn): BatchNorm2d(192, eps=0.001, momentum=0.1, affine=True, track_running_stats=True)\n","          (relu): ReLU(inplace)\n","        )\n","        (2): BasicConv2d(\n","          (conv): Conv2d(192, 224, kernel_size=(1, 7), stride=(1, 1), padding=(0, 3), bias=False)\n","          (bn): BatchNorm2d(224, eps=0.001, momentum=0.1, affine=True, track_running_stats=True)\n","          (relu): ReLU(inplace)\n","        )\n","        (3): BasicConv2d(\n","          (conv): Conv2d(224, 224, kernel_size=(7, 1), stride=(1, 1), padding=(3, 0), bias=False)\n","          (bn): BatchNorm2d(224, eps=0.001, momentum=0.1, affine=True, track_running_stats=True)\n","          (relu): ReLU(inplace)\n","        )\n","        (4): BasicConv2d(\n","          (conv): Conv2d(224, 256, kernel_size=(1, 7), stride=(1, 1), padding=(0, 3), bias=False)\n","          (bn): BatchNorm2d(256, eps=0.001, momentum=0.1, affine=True, track_running_stats=True)\n","          (relu): ReLU(inplace)\n","        )\n","      )\n","      (branch3): Sequential(\n","        (0): AvgPool2d(kernel_size=3, stride=1, padding=1)\n","        (1): BasicConv2d(\n","          (conv): Conv2d(1024, 128, kernel_size=(1, 1), stride=(1, 1), bias=False)\n","          (bn): BatchNorm2d(128, eps=0.001, momentum=0.1, affine=True, track_running_stats=True)\n","          (relu): ReLU(inplace)\n","        )\n","      )\n","    )\n","    (16): Inception_B(\n","      (branch0): BasicConv2d(\n","        (conv): Conv2d(1024, 384, kernel_size=(1, 1), stride=(1, 1), bias=False)\n","        (bn): BatchNorm2d(384, eps=0.001, momentum=0.1, affine=True, track_running_stats=True)\n","        (relu): ReLU(inplace)\n","      )\n","      (branch1): Sequential(\n","        (0): BasicConv2d(\n","          (conv): Conv2d(1024, 192, kernel_size=(1, 1), stride=(1, 1), bias=False)\n","          (bn): BatchNorm2d(192, eps=0.001, momentum=0.1, affine=True, track_running_stats=True)\n","          (relu): ReLU(inplace)\n","        )\n","        (1): BasicConv2d(\n","          (conv): Conv2d(192, 224, kernel_size=(1, 7), stride=(1, 1), padding=(0, 3), bias=False)\n","          (bn): BatchNorm2d(224, eps=0.001, momentum=0.1, affine=True, track_running_stats=True)\n","          (relu): ReLU(inplace)\n","        )\n","        (2): BasicConv2d(\n","          (conv): Conv2d(224, 256, kernel_size=(7, 1), stride=(1, 1), padding=(3, 0), bias=False)\n","          (bn): BatchNorm2d(256, eps=0.001, momentum=0.1, affine=True, track_running_stats=True)\n","          (relu): ReLU(inplace)\n","        )\n","      )\n","      (branch2): Sequential(\n","        (0): BasicConv2d(\n","          (conv): Conv2d(1024, 192, kernel_size=(1, 1), stride=(1, 1), bias=False)\n","          (bn): BatchNorm2d(192, eps=0.001, momentum=0.1, affine=True, track_running_stats=True)\n","          (relu): ReLU(inplace)\n","        )\n","        (1): BasicConv2d(\n","          (conv): Conv2d(192, 192, kernel_size=(7, 1), stride=(1, 1), padding=(3, 0), bias=False)\n","          (bn): BatchNorm2d(192, eps=0.001, momentum=0.1, affine=True, track_running_stats=True)\n","          (relu): ReLU(inplace)\n","        )\n","        (2): BasicConv2d(\n","          (conv): Conv2d(192, 224, kernel_size=(1, 7), stride=(1, 1), padding=(0, 3), bias=False)\n","          (bn): BatchNorm2d(224, eps=0.001, momentum=0.1, affine=True, track_running_stats=True)\n","          (relu): ReLU(inplace)\n","        )\n","        (3): BasicConv2d(\n","          (conv): Conv2d(224, 224, kernel_size=(7, 1), stride=(1, 1), padding=(3, 0), bias=False)\n","          (bn): BatchNorm2d(224, eps=0.001, momentum=0.1, affine=True, track_running_stats=True)\n","          (relu): ReLU(inplace)\n","        )\n","        (4): BasicConv2d(\n","          (conv): Conv2d(224, 256, kernel_size=(1, 7), stride=(1, 1), padding=(0, 3), bias=False)\n","          (bn): BatchNorm2d(256, eps=0.001, momentum=0.1, affine=True, track_running_stats=True)\n","          (relu): ReLU(inplace)\n","        )\n","      )\n","      (branch3): Sequential(\n","        (0): AvgPool2d(kernel_size=3, stride=1, padding=1)\n","        (1): BasicConv2d(\n","          (conv): Conv2d(1024, 128, kernel_size=(1, 1), stride=(1, 1), bias=False)\n","          (bn): BatchNorm2d(128, eps=0.001, momentum=0.1, affine=True, track_running_stats=True)\n","          (relu): ReLU(inplace)\n","        )\n","      )\n","    )\n","    (17): Inception_B(\n","      (branch0): BasicConv2d(\n","        (conv): Conv2d(1024, 384, kernel_size=(1, 1), stride=(1, 1), bias=False)\n","        (bn): BatchNorm2d(384, eps=0.001, momentum=0.1, affine=True, track_running_stats=True)\n","        (relu): ReLU(inplace)\n","      )\n","      (branch1): Sequential(\n","        (0): BasicConv2d(\n","          (conv): Conv2d(1024, 192, kernel_size=(1, 1), stride=(1, 1), bias=False)\n","          (bn): BatchNorm2d(192, eps=0.001, momentum=0.1, affine=True, track_running_stats=True)\n","          (relu): ReLU(inplace)\n","        )\n","        (1): BasicConv2d(\n","          (conv): Conv2d(192, 224, kernel_size=(1, 7), stride=(1, 1), padding=(0, 3), bias=False)\n","          (bn): BatchNorm2d(224, eps=0.001, momentum=0.1, affine=True, track_running_stats=True)\n","          (relu): ReLU(inplace)\n","        )\n","        (2): BasicConv2d(\n","          (conv): Conv2d(224, 256, kernel_size=(7, 1), stride=(1, 1), padding=(3, 0), bias=False)\n","          (bn): BatchNorm2d(256, eps=0.001, momentum=0.1, affine=True, track_running_stats=True)\n","          (relu): ReLU(inplace)\n","        )\n","      )\n","      (branch2): Sequential(\n","        (0): BasicConv2d(\n","          (conv): Conv2d(1024, 192, kernel_size=(1, 1), stride=(1, 1), bias=False)\n","          (bn): BatchNorm2d(192, eps=0.001, momentum=0.1, affine=True, track_running_stats=True)\n","          (relu): ReLU(inplace)\n","        )\n","        (1): BasicConv2d(\n","          (conv): Conv2d(192, 192, kernel_size=(7, 1), stride=(1, 1), padding=(3, 0), bias=False)\n","          (bn): BatchNorm2d(192, eps=0.001, momentum=0.1, affine=True, track_running_stats=True)\n","          (relu): ReLU(inplace)\n","        )\n","        (2): BasicConv2d(\n","          (conv): Conv2d(192, 224, kernel_size=(1, 7), stride=(1, 1), padding=(0, 3), bias=False)\n","          (bn): BatchNorm2d(224, eps=0.001, momentum=0.1, affine=True, track_running_stats=True)\n","          (relu): ReLU(inplace)\n","        )\n","        (3): BasicConv2d(\n","          (conv): Conv2d(224, 224, kernel_size=(7, 1), stride=(1, 1), padding=(3, 0), bias=False)\n","          (bn): BatchNorm2d(224, eps=0.001, momentum=0.1, affine=True, track_running_stats=True)\n","          (relu): ReLU(inplace)\n","        )\n","        (4): BasicConv2d(\n","          (conv): Conv2d(224, 256, kernel_size=(1, 7), stride=(1, 1), padding=(0, 3), bias=False)\n","          (bn): BatchNorm2d(256, eps=0.001, momentum=0.1, affine=True, track_running_stats=True)\n","          (relu): ReLU(inplace)\n","        )\n","      )\n","      (branch3): Sequential(\n","        (0): AvgPool2d(kernel_size=3, stride=1, padding=1)\n","        (1): BasicConv2d(\n","          (conv): Conv2d(1024, 128, kernel_size=(1, 1), stride=(1, 1), bias=False)\n","          (bn): BatchNorm2d(128, eps=0.001, momentum=0.1, affine=True, track_running_stats=True)\n","          (relu): ReLU(inplace)\n","        )\n","      )\n","    )\n","    (18): Reduction_B(\n","      (branch0): Sequential(\n","        (0): BasicConv2d(\n","          (conv): Conv2d(1024, 192, kernel_size=(1, 1), stride=(1, 1), bias=False)\n","          (bn): BatchNorm2d(192, eps=0.001, momentum=0.1, affine=True, track_running_stats=True)\n","          (relu): ReLU(inplace)\n","        )\n","        (1): BasicConv2d(\n","          (conv): Conv2d(192, 192, kernel_size=(3, 3), stride=(2, 2), bias=False)\n","          (bn): BatchNorm2d(192, eps=0.001, momentum=0.1, affine=True, track_running_stats=True)\n","          (relu): ReLU(inplace)\n","        )\n","      )\n","      (branch1): Sequential(\n","        (0): BasicConv2d(\n","          (conv): Conv2d(1024, 256, kernel_size=(1, 1), stride=(1, 1), bias=False)\n","          (bn): BatchNorm2d(256, eps=0.001, momentum=0.1, affine=True, track_running_stats=True)\n","          (relu): ReLU(inplace)\n","        )\n","        (1): BasicConv2d(\n","          (conv): Conv2d(256, 256, kernel_size=(1, 7), stride=(1, 1), padding=(0, 3), bias=False)\n","          (bn): BatchNorm2d(256, eps=0.001, momentum=0.1, affine=True, track_running_stats=True)\n","          (relu): ReLU(inplace)\n","        )\n","        (2): BasicConv2d(\n","          (conv): Conv2d(256, 320, kernel_size=(7, 1), stride=(1, 1), padding=(3, 0), bias=False)\n","          (bn): BatchNorm2d(320, eps=0.001, momentum=0.1, affine=True, track_running_stats=True)\n","          (relu): ReLU(inplace)\n","        )\n","        (3): BasicConv2d(\n","          (conv): Conv2d(320, 320, kernel_size=(3, 3), stride=(2, 2), bias=False)\n","          (bn): BatchNorm2d(320, eps=0.001, momentum=0.1, affine=True, track_running_stats=True)\n","          (relu): ReLU(inplace)\n","        )\n","      )\n","      (branch2): MaxPool2d(kernel_size=3, stride=2, padding=0, dilation=1, ceil_mode=False)\n","    )\n","    (19): Inception_C(\n","      (branch0): BasicConv2d(\n","        (conv): Conv2d(1536, 256, kernel_size=(1, 1), stride=(1, 1), bias=False)\n","        (bn): BatchNorm2d(256, eps=0.001, momentum=0.1, affine=True, track_running_stats=True)\n","        (relu): ReLU(inplace)\n","      )\n","      (branch1_0): BasicConv2d(\n","        (conv): Conv2d(1536, 384, kernel_size=(1, 1), stride=(1, 1), bias=False)\n","        (bn): BatchNorm2d(384, eps=0.001, momentum=0.1, affine=True, track_running_stats=True)\n","        (relu): ReLU(inplace)\n","      )\n","      (branch1_1a): BasicConv2d(\n","        (conv): Conv2d(384, 256, kernel_size=(1, 3), stride=(1, 1), padding=(0, 1), bias=False)\n","        (bn): BatchNorm2d(256, eps=0.001, momentum=0.1, affine=True, track_running_stats=True)\n","        (relu): ReLU(inplace)\n","      )\n","      (branch1_1b): BasicConv2d(\n","        (conv): Conv2d(384, 256, kernel_size=(3, 1), stride=(1, 1), padding=(1, 0), bias=False)\n","        (bn): BatchNorm2d(256, eps=0.001, momentum=0.1, affine=True, track_running_stats=True)\n","        (relu): ReLU(inplace)\n","      )\n","      (branch2_0): BasicConv2d(\n","        (conv): Conv2d(1536, 384, kernel_size=(1, 1), stride=(1, 1), bias=False)\n","        (bn): BatchNorm2d(384, eps=0.001, momentum=0.1, affine=True, track_running_stats=True)\n","        (relu): ReLU(inplace)\n","      )\n","      (branch2_1): BasicConv2d(\n","        (conv): Conv2d(384, 448, kernel_size=(3, 1), stride=(1, 1), padding=(1, 0), bias=False)\n","        (bn): BatchNorm2d(448, eps=0.001, momentum=0.1, affine=True, track_running_stats=True)\n","        (relu): ReLU(inplace)\n","      )\n","      (branch2_2): BasicConv2d(\n","        (conv): Conv2d(448, 512, kernel_size=(1, 3), stride=(1, 1), padding=(0, 1), bias=False)\n","        (bn): BatchNorm2d(512, eps=0.001, momentum=0.1, affine=True, track_running_stats=True)\n","        (relu): ReLU(inplace)\n","      )\n","      (branch2_3a): BasicConv2d(\n","        (conv): Conv2d(512, 256, kernel_size=(1, 3), stride=(1, 1), padding=(0, 1), bias=False)\n","        (bn): BatchNorm2d(256, eps=0.001, momentum=0.1, affine=True, track_running_stats=True)\n","        (relu): ReLU(inplace)\n","      )\n","      (branch2_3b): BasicConv2d(\n","        (conv): Conv2d(512, 256, kernel_size=(3, 1), stride=(1, 1), padding=(1, 0), bias=False)\n","        (bn): BatchNorm2d(256, eps=0.001, momentum=0.1, affine=True, track_running_stats=True)\n","        (relu): ReLU(inplace)\n","      )\n","      (branch3): Sequential(\n","        (0): AvgPool2d(kernel_size=3, stride=1, padding=1)\n","        (1): BasicConv2d(\n","          (conv): Conv2d(1536, 256, kernel_size=(1, 1), stride=(1, 1), bias=False)\n","          (bn): BatchNorm2d(256, eps=0.001, momentum=0.1, affine=True, track_running_stats=True)\n","          (relu): ReLU(inplace)\n","        )\n","      )\n","    )\n","    (20): Inception_C(\n","      (branch0): BasicConv2d(\n","        (conv): Conv2d(1536, 256, kernel_size=(1, 1), stride=(1, 1), bias=False)\n","        (bn): BatchNorm2d(256, eps=0.001, momentum=0.1, affine=True, track_running_stats=True)\n","        (relu): ReLU(inplace)\n","      )\n","      (branch1_0): BasicConv2d(\n","        (conv): Conv2d(1536, 384, kernel_size=(1, 1), stride=(1, 1), bias=False)\n","        (bn): BatchNorm2d(384, eps=0.001, momentum=0.1, affine=True, track_running_stats=True)\n","        (relu): ReLU(inplace)\n","      )\n","      (branch1_1a): BasicConv2d(\n","        (conv): Conv2d(384, 256, kernel_size=(1, 3), stride=(1, 1), padding=(0, 1), bias=False)\n","        (bn): BatchNorm2d(256, eps=0.001, momentum=0.1, affine=True, track_running_stats=True)\n","        (relu): ReLU(inplace)\n","      )\n","      (branch1_1b): BasicConv2d(\n","        (conv): Conv2d(384, 256, kernel_size=(3, 1), stride=(1, 1), padding=(1, 0), bias=False)\n","        (bn): BatchNorm2d(256, eps=0.001, momentum=0.1, affine=True, track_running_stats=True)\n","        (relu): ReLU(inplace)\n","      )\n","      (branch2_0): BasicConv2d(\n","        (conv): Conv2d(1536, 384, kernel_size=(1, 1), stride=(1, 1), bias=False)\n","        (bn): BatchNorm2d(384, eps=0.001, momentum=0.1, affine=True, track_running_stats=True)\n","        (relu): ReLU(inplace)\n","      )\n","      (branch2_1): BasicConv2d(\n","        (conv): Conv2d(384, 448, kernel_size=(3, 1), stride=(1, 1), padding=(1, 0), bias=False)\n","        (bn): BatchNorm2d(448, eps=0.001, momentum=0.1, affine=True, track_running_stats=True)\n","        (relu): ReLU(inplace)\n","      )\n","      (branch2_2): BasicConv2d(\n","        (conv): Conv2d(448, 512, kernel_size=(1, 3), stride=(1, 1), padding=(0, 1), bias=False)\n","        (bn): BatchNorm2d(512, eps=0.001, momentum=0.1, affine=True, track_running_stats=True)\n","        (relu): ReLU(inplace)\n","      )\n","      (branch2_3a): BasicConv2d(\n","        (conv): Conv2d(512, 256, kernel_size=(1, 3), stride=(1, 1), padding=(0, 1), bias=False)\n","        (bn): BatchNorm2d(256, eps=0.001, momentum=0.1, affine=True, track_running_stats=True)\n","        (relu): ReLU(inplace)\n","      )\n","      (branch2_3b): BasicConv2d(\n","        (conv): Conv2d(512, 256, kernel_size=(3, 1), stride=(1, 1), padding=(1, 0), bias=False)\n","        (bn): BatchNorm2d(256, eps=0.001, momentum=0.1, affine=True, track_running_stats=True)\n","        (relu): ReLU(inplace)\n","      )\n","      (branch3): Sequential(\n","        (0): AvgPool2d(kernel_size=3, stride=1, padding=1)\n","        (1): BasicConv2d(\n","          (conv): Conv2d(1536, 256, kernel_size=(1, 1), stride=(1, 1), bias=False)\n","          (bn): BatchNorm2d(256, eps=0.001, momentum=0.1, affine=True, track_running_stats=True)\n","          (relu): ReLU(inplace)\n","        )\n","      )\n","    )\n","    (21): Inception_C(\n","      (branch0): BasicConv2d(\n","        (conv): Conv2d(1536, 256, kernel_size=(1, 1), stride=(1, 1), bias=False)\n","        (bn): BatchNorm2d(256, eps=0.001, momentum=0.1, affine=True, track_running_stats=True)\n","        (relu): ReLU(inplace)\n","      )\n","      (branch1_0): BasicConv2d(\n","        (conv): Conv2d(1536, 384, kernel_size=(1, 1), stride=(1, 1), bias=False)\n","        (bn): BatchNorm2d(384, eps=0.001, momentum=0.1, affine=True, track_running_stats=True)\n","        (relu): ReLU(inplace)\n","      )\n","      (branch1_1a): BasicConv2d(\n","        (conv): Conv2d(384, 256, kernel_size=(1, 3), stride=(1, 1), padding=(0, 1), bias=False)\n","        (bn): BatchNorm2d(256, eps=0.001, momentum=0.1, affine=True, track_running_stats=True)\n","        (relu): ReLU(inplace)\n","      )\n","      (branch1_1b): BasicConv2d(\n","        (conv): Conv2d(384, 256, kernel_size=(3, 1), stride=(1, 1), padding=(1, 0), bias=False)\n","        (bn): BatchNorm2d(256, eps=0.001, momentum=0.1, affine=True, track_running_stats=True)\n","        (relu): ReLU(inplace)\n","      )\n","      (branch2_0): BasicConv2d(\n","        (conv): Conv2d(1536, 384, kernel_size=(1, 1), stride=(1, 1), bias=False)\n","        (bn): BatchNorm2d(384, eps=0.001, momentum=0.1, affine=True, track_running_stats=True)\n","        (relu): ReLU(inplace)\n","      )\n","      (branch2_1): BasicConv2d(\n","        (conv): Conv2d(384, 448, kernel_size=(3, 1), stride=(1, 1), padding=(1, 0), bias=False)\n","        (bn): BatchNorm2d(448, eps=0.001, momentum=0.1, affine=True, track_running_stats=True)\n","        (relu): ReLU(inplace)\n","      )\n","      (branch2_2): BasicConv2d(\n","        (conv): Conv2d(448, 512, kernel_size=(1, 3), stride=(1, 1), padding=(0, 1), bias=False)\n","        (bn): BatchNorm2d(512, eps=0.001, momentum=0.1, affine=True, track_running_stats=True)\n","        (relu): ReLU(inplace)\n","      )\n","      (branch2_3a): BasicConv2d(\n","        (conv): Conv2d(512, 256, kernel_size=(1, 3), stride=(1, 1), padding=(0, 1), bias=False)\n","        (bn): BatchNorm2d(256, eps=0.001, momentum=0.1, affine=True, track_running_stats=True)\n","        (relu): ReLU(inplace)\n","      )\n","      (branch2_3b): BasicConv2d(\n","        (conv): Conv2d(512, 256, kernel_size=(3, 1), stride=(1, 1), padding=(1, 0), bias=False)\n","        (bn): BatchNorm2d(256, eps=0.001, momentum=0.1, affine=True, track_running_stats=True)\n","        (relu): ReLU(inplace)\n","      )\n","      (branch3): Sequential(\n","        (0): AvgPool2d(kernel_size=3, stride=1, padding=1)\n","        (1): BasicConv2d(\n","          (conv): Conv2d(1536, 256, kernel_size=(1, 1), stride=(1, 1), bias=False)\n","          (bn): BatchNorm2d(256, eps=0.001, momentum=0.1, affine=True, track_running_stats=True)\n","          (relu): ReLU(inplace)\n","        )\n","      )\n","    )\n","  )\n","  (avg_pool): AvgPool2d(kernel_size=8, stride=8, padding=0)\n","  (last_linear): Linear(in_features=1536, out_features=1000, bias=True)\n",")"]},"metadata":{"tags":[]},"execution_count":122}]},{"cell_type":"code","metadata":{"id":"BYTwXUb1uLmd","colab_type":"code","colab":{}},"source":["def f1_score(y_pred:Tensor, y_true:Tensor,beta:float=1, eps:float=1e-9)->Rank0Tensor:\n","    \"Computes the f_beta between `preds` and `targets`\"\n","    beta2 = beta ** 2\n","\n","    y_pred = y_pr
…
